logs/model_weights.pth (torch_old, 882137 bytes, 16 tensors)

encoder.0.weight f4 [128, 784]
000000 94 34 97 3a 94 34 97 3a 94 34 97 3a 94 34 97 3a
       0.0011536055 0.0011536055 0.0011536055 0.0011536055
000010 94 34 97 3a 94 34 97 3a 94 34 97 3a 94 34 97 3a
       0.0011536055 0.0011536055 0.0011536055 0.0011536055
000020 94 34 97 3a 94 34 97 3a 94 34 97 3a 94 34 97 3a
       0.0011536055 0.0011536055 0.0011536055 0.0011536055
000030 94 34 97 3a 94 34 97 3a 94 34 97 3a 94 34 97 3a
       0.0011536055 0.0011536055 0.0011536055 0.0011536055
000040 94 34 97 3a 94 34 97 3a 94 34 97 3a 94 34 97 3a
       0.0011536055 0.0011536055 0.0011536055 0.0011536055
000050 94 34 97 3a 94 34 97 3a 94 34 97 3a 94 34 97 3a
       0.0011536055 0.0011536055 0.0011536055 0.0011536055
000060 94 34 97 3a 94 34 97 3a 94 34 97 3a 94 34 97 3a
       0.0011536055 0.0011536055 0.0011536055 0.0011536055
000070 94 34 97 3a 94 34 97 3a 94 34 97 3a 94 34 97 3a
       0.0011536055 0.0011536055 0.0011536055 0.0011536055
000080 94 34 97 3a 94 34 97 3a 94 34 97 3a 9a 34 97 3a
       0.0011536055 0.0011536055 0.0011536055 0.0011536062
000090 26 2d 93 3a f8 e2 8f 3a b0 02 93 3a 92 35 97 3a
       0.0011228665 0.0010977676 0.0011216011 0.0011536351
0000a0 60 33 97 3a d9 33 97 3a 94 34 97 3a 94 34 97 3a
       0.0011535697 0.0011535838 0.0011536055 0.0011536055
0000b0 94 34 97 3a 94 34 97 3a 94 34 97 3a 71 35 97 3a
       0.0011536055 0.0011536055 0.0011536055 0.0011536313
0000c0 29 35 97 3a 79 34 97 3a 71 34 97 3a 92 34 97 3a
       0.0011536229 0.0011536024 0.0011536014 0.0011536053
0000d0 94 34 97 3a 94 34 97 3a 94 34 97 3a 94 34 97 3a
       0.0011536055 0.0011536055 0.0011536055 0.0011536055
0000e0 94 34 97 3a 94 34 97 3a 94 34 97 3a 94 34 97 3a
       0.0011536055 0.0011536055 0.0011536055 0.0011536055
0000f0 94 34 97 3a 94 34 97 3a 94 34 97 3a e8 b2 95 3a
       0.0011536055 0.0011536055 0.0011536055 0.0011421116
000100 40 2a 8f 3a 60 14 8f 3a e8 46 8d 3a 00 ac 81 3a
       0.0010922626 0.0010916106 0.0010778578 0.0009893179
000110 36 0f 7b 3a ae e0 7a 3a b6 9c 89 3a a2 5b a3 3a
       0.0009577157 0.0009570223 0.0010498974 0.0012463222
000120 61 ae b3 3a 02 a9 c3 3a 60 28 a7 3a b6 15 96 3a
       0.0013708585 0.0014927688 0.0012753122 0.0011450562
000130 03 15 87 3a 41 27 82 3a ec b9 8c 3a 53 b6 93 3a
       0.0010305945 0.0009929911 0.0010736561 0.0011269547
000140 94 34 97 3a 94 34 97 3a 94 34 97 3a 94 34 97 3a
       0.0011536055 0.0011536055 0.0011536055 0.0011536055
000150 94 34 97 3a 94 34 97 3a 94 34 97 3a 94 34 97 3a
       0.0011536055 0.0011536055 0.0011536055 0.0011536055
000160 85 34 97 3a 4b 38 97 3a 5b 8a 99 3a c0 13 94 3a
       0.0011536038 0.0011537162 0.0011714207 0.001129739
000170 78 f5 93 3a c8 1c 8d 3a a6 1d 8a 3a 56 2c 6f 3a
       0.0011288365 0.0010766024 0.00105374 0.0009123733
000180 06 1b 54 3a 65 85 6c 3a dc 52 87 3a 27 2a c8 3a
       0.0008091185 0.0009022563 0.0010324377 0.0015271351
000190 21 26 f0 3a 0d 11 ee 3a b2 b9 a8 3a 12 30 78 3a
       0.001832191 0.001816304 0.0012872724 0.0009467612
0001a0 20 18 79 3a d6 83 8a 3a 6b 50 95 3a 8e b0 93 3a
       0.0009502191 0.0010567855 0.0011391764 0.0011267827
0001b0 41 68 96 3a 94 34 97 3a 94 34 97 3a 94 34 97 3a
       0.0011475162 0.0011536055 0.0011536055 0.0011536055
0001c0 94 34 97 3a 94 34 97 3a 94 34 97 3a b3 34 97 3a
       0.0011536055 0.0011536055 0.0011536055 0.0011536091
0001d0 bc 66 97 3a 50 64 9c 3a 4b 78 a9 3a 0f 78 c9 3a
       0.0011551003 0.0011931751 0.0012929527 0.0015370863
0001e0 73 27 a6 3a f2 2a a0 3a ae da 7a 3a 0d b6 07 3a
       0.0012676552 0.001221983 0.0009569329 0.0005176969
0001f0 90 bb 9c 39 1f fa cd 39 e9 0d 11 3a b4 35 9c 3a
       0.00029894384 0.00039287002 0.0005533384 0.001191786
000200 c5 ab 9a 3a ec e8 5e 3a 41 73 11 3a 55 12 20 3a
       0.0011800459 0.0008503336 0.0005548485 0.00061062473
000210 fc bd 37 3a a1 93 38 3a 21 9b 80 3a 93 0d 8d 3a
       0.0007009206 0.00070410414 0.0009811857 0.0010761492
000220 72 0b 93 3a 96 e3 96 3a 6c 34 97 3a 6c 34 97 3a
       0.0011218621 0.0011511918 0.0011536009 0.0011536009
000230 94 34 97 3a 94 34 97 3a 5e 60 98 3a 45 35 97 3a
       0.0011536055 0.0011536055 0.0011625399 0.0011536261
000240 59 96 98 3a 1c 8e c5 3a 93 73 c4 3a 35 cb c4 3a
       0.0011641487 0.0015072259 0.0014988057 0.0015014174
000250 90 c5 94 3a 52 32 7f 3a ae 07 09 3a 62 41 45 3a
       0.0011350382 0.00097349763 0.00052272796 0.00075246964
000260 9d 4e 17 3a 67 e4 7c 39 a9 9e d4 39 4a 03 d6 39
       0.0005771907 0.0002411768 0.00040554002 0.0004081971
000270 ce cc 1a 39 da 42 c5 38 13 84 ed 39 50 25 ed 39
       0.0001476288 9.406144e-05 0.00045302566 0.00045231963
000280 7d d5 9d 39 fa 17 96 39 50 38 69 39 3e 8f c1 39
       0.00030104435 0.00028628093 0.0002224159 0.00036918552
000290 bc 52 3e 3a b3 8d 8a 3a ca 2c 95 3a 4f 34 97 3a
       0.0007260253 0.0010570794 0.0011381146 0.0011535975
0002a0 94 34 97 3a 94 34 97 3a d8 41 97 3a 8b 0e 91 3a
       0.0011536055 0.0011536055 0.0011540009 0.0011066956
0002b0 3b 0c 36 3a e1 e1 94 3a 5e e8 a6 3a 96 80 7c 3a
       0.00069445715 0.0011358821 0.0012734046 0.0009632198
0002c0 4b 1b 4b 3a 99 c4 05 3a 58 0e 9d 39 82 ec 04 3a
       0.00077479024 0.00051028427 0.0002995606 0.0005070643
0002d0 24 02 02 3a b0 ae 36 3a bc df 4c 3a ae a1 3a 3a
       0.00049594254 0.00069687795 0.00078153214 0.0007119429
0002e0 c0 3c 25 3a c0 7a b0 39 a8 70 22 3a d6 8c 26 3a
       0.0006303303 0.00033660792 0.00061965967 0.00063533837
0002f0 79 da 1e 39 d4 f7 c3 38 cd 27 38 b9 01 f0 b3 36
       0.00015149442 9.344486e-05 -0.00017562434 5.362556e-06
000300 ee 9f 30 3a 9f 29 92 3a 8d cd 92 3a 94 34 97 3a
       0.00067376986 0.001115132 0.0011200175 0.0011536055
000310 94 34 97 3a 94 34 97 3a 94 34 97 3a f3 7c 8d 3a
       0.0011536055 0.0011536055 0.0011536055 0.0010794684
000320 ce 42 32 3a 81 32 8a 3a 92 5d fd 39 77 10 53 39
       0.0006800116 0.0010543616 0.00048325636 0.00020128662
000330 47 1e e3 37 d8 a2 0a 38 57 45 93 36 c3 a9 01 3a
       2.7074608e-05 3.3053424e-05 4.3890136e-06 0.0004946256
000340 f1 f9 db 39 ca db 3c 3a 49 fd 61 3a c9 ae 35 3a
       0.00041957156 0.0007204382 0.0008620811 0.0006930647
000350 0e 6a 6c 3a cb 11 3f 38 8e 88 77 38 94 5e ba b6
       0.0009018489 4.555452e-05 5.9016566e-05 -5.5542423e-06
000360 8b a7 86 38 0b c4 47 39 1c c0 7e 39 7a e1 e6 b8
       6.420825e-05 0.0001905115 0.00024294894 -0.00011009253
000370 65 88 19 3a 6e 49 89 3a f0 7d 85 3a 94 34 97 3a
       0.0005856811 0.0010474154 0.0010184627 0.0011536055
000380 94 34 97 3a 94 34 97 3a fc 32 97 3a fb 8d 8e 3a
       0.0011536055 0.0011536055 0.001153558 0.0010876054
000390 15 d5 60 3a 93 ed e6 39 f3 66 2e 39 b8 e1 89 38
       0.00085766736 0.00044046025 0.00016632285 6.5747125e-05
0003a0 cb f7 b3 38 ba ba b8 37 e2 9f 90 b7 9e 99 1d ba
       8.58154e-05 2.202146e-05 -1.7240589e-05 -0.00060119655
0003b0 7d 77 de b8 b0 f4 03 38 5f e3 2d 37 cf 86 bd 38
       -0.00010608041 3.1460717e-05 1.03645425e-05 9.037332e-05
0003c0 07 92 45 38 5c ca 1a 39 09 a4 ae 38 4f d7 ed 37
       4.710446e-05 0.00014761969 8.3275205e-05 2.8352863e-05
0003d0 52 7e ca 39 e3 22 00 3a ee 10 ee 39 be a7 a9 39
       0.00038622558 0.0004888011 0.0004540751 0.0003235917
0003e0 a8 68 74 3a ae 1b 92 3a 1d bf 8c 3a 94 34 97 3a
       0.00093234563 0.0011147165 0.0010738109 0.0011536055
0003f0 94 34 97 3a 94 34 97 3a 54 33 97 3a b2 b2 92 3a
       0.0011536055 0.0011536055 0.0011535683 0.0011192171

encoder.0.bias f4 [128]
000000 94 34 97 ba c6 26 20 ba d3 ec 34 bc a7 eb a5 bb
       -0.0011536055 -0.00061092933 -0.011042791 -0.0050634923
000010 67 a1 31 bc 7e 5b a2 b8 c9 21 a7 b8 43 b4 99 bb
       -0.010841704 -7.741804e-05 -7.9694735e-05 -0.0046906783
000020 70 5c f2 b2 32 e9 7c ba fe 73 13 bb 41 31 06 3c
       -2.8214544e-08 -0.0009647786 -0.0022499557 0.008190454
000030 bb d7 e9 3c a3 f2 89 bb 0e b6 95 b5 7d b8 08 b6
       0.028545251 -0.0042098328 -1.115435e-06 -2.0372966e-06
000040 e4 ba 77 bc ff 06 80 bc a3 05 2f bd 78 6f 8c bb
       -0.015120242 -0.015628336 -0.042729985 -0.004285749
000050 55 19 90 bc 32 c8 c1 b6 fa ff a4 b0 35 be da ae
       -0.017590204 -5.775154e-06 -1.2005323e-09 -9.94728e-11
000060 20 9a d6 b4 fe 29 f0 bc 7d a6 6c bb 18 9d 70 b1
       -3.9972747e-07 -0.029316898 -0.0036109977 -3.5013894e-09
000070 92 4b 3b bd dc 05 f8 bc e8 60 49 bd 5c d2 27 b0
       -0.045726366 -0.030276231 -0.049164683 -6.1053185e-10
000080 f5 07 bb 3a cb e1 dc bb 30 e1 c4 b6 dd 9e 09 b7
       0.0014269339 -0.006740784 -5.8674705e-06 -8.202825e-06
000090 64 d9 7f bc fd 98 c3 b8 34 f2 72 bd 33 81 c6 bb
       -0.015615795 -9.326821e-05 -0.059313014 -0.006057882
0000a0 d9 04 4c b3 1e 71 2c 3c f4 c7 e5 bb c3 00 20 b2
       -4.750186e-08 0.010525016 -0.0070123617 -9.313399e-09
0000b0 7d ca a0 bc ca 42 96 b9 1b d3 d2 3b 64 79 94 bc
       -0.019627804 -0.0002865999 0.006433857 -0.01812429
0000c0 78 88 9f 3a 2d e3 26 99 32 41 2a b7 33 20 21 bc
       0.0012171408 -8.627877e-24 -1.0147969e-05 -0.009834337
0000d0 fc 26 ca bc 4f a5 ad 3d c2 f2 94 b9 f2 f8 73 bc
       -0.024676792 0.08478796 -0.00028409628 -0.014890896
0000e0 91 7d 10 bb 25 c8 2a bb 60 0c 3b b2 ff 76 41 a0
       -0.00220475 -0.0026059237 -1.0887646e-08 -1.6387108e-19
0000f0 11 be a3 bc ac b8 44 ba 65 ec f3 ba 8f 98 03 3b
       -0.019988092 -0.0007504325 -0.001860988 0.0020079946
000100 e1 30 37 bd c7 03 df bc 9e b2 d4 bc 60 37 02 3d
       -0.04472435 -0.02722348 -0.025964078 0.03179109
000110 8c d3 a8 bc 00 2d 7b bc 14 0e 73 bc c7 85 e7 a3
       -0.020608686 -0.015330553 -0.014834899 -2.5101727e-17
000120 51 a8 fb b7 5c fb 14 bc 1a 69 40 bc d3 23 27 bd
       -2.999991e-05 -0.009093132 -0.011743808 -0.04080565
000130 a8 1c cd bb f9 dd 85 bb 26 36 18 b5 aa 37 96 b0
       -0.0062595196 -0.004085299 -5.670321e-07 -1.0929757e-09
000140 74 24 a9 bc 82 53 cc bc 8c 73 97 bb d0 49 e6 bb
       -0.020647265 -0.024942163 -0.0046219286 -0.007027842
000150 af 4d e0 b6 48 f4 de bb 16 98 3d bc 2e c8 a2 bc
       -6.684764e-06 -0.006804023 -0.011571905 -0.019870844
000160 5e 63 11 b9 c7 a4 09 b3 9a dd 11 3d 17 13 00 bd
       -0.00013865295 -3.2047662e-08 0.035611726 -0.031268205
000170 11 c1 8b b4 04 f5 f0 bc 69 f2 35 b8 43 66 87 bc
       -2.6031242e-07 -0.029413708 -4.3379525e-05 -0.016528254
000180 4e 43 15 b7 0d 10 23 b2 cb fb 5d 9b e0 6b 11 bc
       -8.896763e-06 -9.491498e-09 -1.836205e-22 -0.008875817
000190 ec df f1 b5 9b 4f 0a bc ce f6 77 3a 56 06 67 bc
       -1.8021069e-06 -0.008441831 0.0009459079 -0.014100632
0001a0 df e7 d4 bc cc b5 89 b6 62 c0 71 a5 ab f4 fc ba
       -0.025989471 -4.104082e-06 -2.09686e-16 -0.0019298991
0001b0 d6 77 39 ae 46 4f b6 bc f5 e9 6a b9 13 f1 f2 b2
       -4.2170566e-11 -0.022254597 -0.00022403135 -2.8282136e-08
0001c0 a4 b8 b3 bc 3a d1 0b bc 35 0a ad b0 50 8e 57 bd
       -0.02193863 -0.00853377 -1.2590308e-09 -0.052625954
0001d0 1a d8 16 b8 c1 6d c1 b3 74 da 7e bc 1c fc 04 a5
       -3.5964047e-05 -9.007227e-08 -0.015555013 -1.1534593e-16
0001e0 bb a7 11 b7 5d 1b 2d bd e3 da bb bc 81 55 5d ba
       -8.681726e-06 -0.042262424 -0.022931522 -0.0008443222
0001f0 a0 4a c4 3a 45 4a 5b bc 63 5f a0 b3 b7 3a ae 3c
       0.0014975853 -0.013384406 -7.467931e-08 0.021268232

encoder.2.weight f4 [64, 128]
000000 c4 2f 10 00 aa 92 07 00 25 b2 1d a4 37 9b 13 00
       1.486503e-39 6.95462e-40 -3.4194843e-17 1.800555e-39
000010 d8 c3 12 2b 86 df 12 80 93 31 02 00 5a 19 09 80
       5.214141e-13 -1.733224e-39 2.01455e-40 -8.35614e-40
000020 e2 23 01 00 53 10 10 80 1a 93 00 80 0a 28 16 b2
       1.04708e-40 -1.475224e-39 -5.277e-41 -8.740253e-09
000030 a3 24 12 b6 e0 21 78 aa 8d 2f 15 80 ec 0e 0d 00
       -2.177702e-06 -2.2038578e-13 -1.945603e-39 1.199214e-39
000040 54 ff 15 00 12 be 8a 31 b1 ca 06 00 82 87 0e 80
       2.02014e-39 4.037937e-09 6.23725e-40 -1.334308e-39
000050 ef 46 05 00 78 6a 15 80 de 8c 04 00 da ef 07 00
       4.84624e-40 -1.966739e-39 4.17876e-40 7.28891e-40
000060 bb 47 08 00 ac 94 06 2a 8b 6f 08 00 66 39 10 00
       7.60416e-40 1.1953172e-13 7.74698e-40 1.489959e-39
000070 5c 01 05 00 38 b7 14 9c 69 70 19 2e af 2c 07 00
       4.59665e-40 -4.9205897e-22 3.4888013e-11 6.58878e-40
000080 cf e1 71 32 55 02 0e 00 d6 9f 05 00 b2 ef 0a 00
       1.4079389e-08 1.286534e-39 5.16516e-40 1.004341e-39
000090 d0 ba 02 00 fc 52 02 80 00 d0 00 80 94 e5 00 00
       2.50687e-40 -2.1344e-40 -7.4616e-41 8.2357e-41
0000a0 35 23 11 80 58 44 02 80 af d6 05 00 d2 35 15 00
       -1.573833e-39 -2.08188e-40 5.36191e-40 1.947853e-39
0000b0 88 8c 06 00 34 32 20 37 14 25 3a a1 7d d7 05 80
       6.01426e-40 9.548432e-06 -6.3068324e-19 -5.3648e-40
0000c0 58 1d eb b5 f3 6a 11 80 ec 14 02 00 e1 7a de 97
       -1.7517405e-06 -1.59957e-39 1.91176e-40 -1.4377433e-24
0000d0 b7 71 0b 00 ba 2a aa ba 30 77 0c 00 19 30 0a af
       1.050984e-39 -0.0012982704 1.144782e-39 -1.2568115e-10
0000e0 97 24 f9 ae 4c 86 04 80 bf b2 0d 00 65 7c 12 00
       -1.1329709e-10 -4.15519e-40 1.257983e-39 1.697663e-39
0000f0 de 8e 57 b1 a7 a0 0d 00 e5 56 07 00 29 2b 93 b6
       -3.1367828e-09 1.251493e-39 6.7402e-40 -4.385966e-06
000100 26 ee 6d b0 cc 96 03 00 88 a9 02 00 b5 d1 fe b7
       -8.6558527e-10 3.29602e-40 2.44487e-40 -3.0376812e-05
000110 d2 fc bb ae 20 80 c6 28 26 31 08 00 ba 75 07 80
       -8.5486854e-11 2.2037981e-14 7.52315e-40 -6.85081e-40
000120 3f 6c 10 80 25 f7 e7 05 72 24 86 2e c1 1f b7 31
       -1.5082e-39 2.1813922e-35 6.1000885e-11 5.329611e-09
000130 ca bc c6 a0 40 98 05 80 71 a3 0d 80 63 32 0e 80
       -3.3667435e-19 -5.13794e-40 -1.252493e-39 -1.303772e-39
000140 b3 fe fb af 7e 82 5c ad 38 ab cb a9 65 08 02 00
       -4.583761e-10 -1.2534527e-11 -9.044713e-14 1.86682e-40
000150 19 a3 10 80 61 20 2e b4 95 71 15 00 cb 54 01 80
       -1.527876e-39 -1.6216792e-07 1.969291e-39 -1.22253e-40
000160 50 18 14 00 2e ae 0c 80 c5 ac 17 b7 d6 e8 17 2f
       1.845432e-39 -1.16451e-39 -9.040527e-06 1.381609e-10
000170 5f 02 11 80 41 23 c0 b3 b5 69 0a 00 ff 66 0e af
       -1.562054e-39 -8.9471094e-08 9.56275e-40 -1.2951416e-10
000180 cf ef 01 00 f7 39 13 80 46 c0 13 00 4e f7 14 00
       1.77863e-40 -1.765668e-39 1.813849e-39 1.925426e-39
000190 19 06 02 80 14 c6 03 80 e3 12 bc b3 c0 aa 00 80
       -1.85858e-40 -3.46564e-40 -8.757868e-08 -6.1254e-41
0001a0 b7 15 fb a1 67 33 07 80 72 29 06 00 80 80 82 2b
       -1.7014169e-18 -6.61288e-40 5.65881e-40 9.272721e-13
0001b0 9a 2a 0e 80 5f 1e 00 00 0e 12 06 00 48 a3 14 80
       -1.30098e-39 1.0895e-41 5.5749e-40 -1.895284e-39
0001c0 fd 58 06 80 81 42 04 00 ce 4b 07 80 20 79 77 b3
       -5.82936e-40 3.91199e-40 -6.70042e-40 -5.761933e-08
0001d0 2e dc 15 80 61 00 09 00 07 2c 06 80 c8 8c 00 80
       -2.007531e-39 8.26655e-40 -5.66807e-40 -5.0503e-41
0001e0 de 58 0c 00 54 e3 49 07 02 8d 38 af 51 37 03 80
       1.133905e-39 1.5188365e-34 -1.6784799e-10 -2.9535e-40
0001f0 19 72 b7 9e 83 d9 7a ae c0 33 0b 80 ca 17 d4 33
       -1.9423068e-20 -5.7036608e-11 -1.028755e-39 9.8763465e-08
000200 80 e7 0a 80 9f 47 10 00 15 02 01 00 cf e1 0b 80
       -1.001402e-39 1.495061e-39 9.2582e-41 -1.091195e-39
000210 5a c3 00 00 b5 c0 06 80 71 37 13 00 e9 6e 00 00
       7.0079e-41 -6.20143e-40 1.764763e-39 3.9787e-41
000220 78 6b 06 80 f5 6a 13 80 a0 9c 03 00 51 8e 58 a7
       -5.89566e-40 -1.783243e-39 3.31693e-40 -3.0053172e-15
000230 f4 4b 9c b5 be 01 0e 00 83 22 0e 80 e4 6f 0b 00
       -1.1645011e-06 1.286322e-39 -1.298077e-39 1.050329e-39
000240 85 e6 01 80 46 bb 16 98 a3 d9 04 80 f5 e2 10 80
       -1.7453e-40 -1.9481595e-24 -4.45415e-40 -1.550785e-39
000250 ab bc 0a 80 bb 40 00 00 ae 4c 02 80 9b c3 0e 80
       -9.86036e-40 2.3221e-41 -2.11178e-40 -1.355867e-39
000260 d9 c4 10 80 66 4e 03 80 cc c6 0a 00 8d 39 00 00
       -1.539984e-39 -3.0363e-40 9.8967e-40 2.0645e-41
000270 42 16 02 00 5c eb 07 00 cb 81 07 80 d0 72 0d 00
       1.91656e-40 7.2728e-40 -6.8941e-40 1.235048e-39
000280 8e 7b 04 00 df 17 0c 80 4c 2f 03 80 25 8b 07 00
       4.11665e-40 -1.110589e-39 -2.92473e-40 6.92764e-40
000290 5f d0 04 80 80 0b 16 80 9b 54 08 00 c6 c9 05 00
       -4.42091e-40 -2.024506e-39 7.65035e-40 5.3156e-40
0002a0 66 f3 01 80 69 01 06 00 da 08 03 80 b6 65 03 00
       -1.7915e-40 5.51519e-40 -2.78682e-40 3.11993e-40
0002b0 a7 f3 08 00 ff 1f d5 1c 51 2a 08 80 5e 0f 00 80
       8.2209e-40 1.4103428e-21 -7.49864e-40 -5.513e-42
0002c0 40 a6 9e 02 f1 50 03 00 0d 8a 0a 00 58 9c 09 00
       2.3311436e-37 3.04543e-40 9.67878e-40 8.82605e-40
0002d0 14 ea 0b 00 25 58 5e af 0b 13 10 80 01 19 47 8f
       1.094162e-39 -2.0222098e-10 -1.476199e-39 -9.816273e-30
0002e0 d8 14 9f 04 2b ab 10 a5 33 ef 07 80 f8 e8 06 00
       3.7399862e-36 -1.2548003e-16 -7.28657e-40 6.34586e-40
0002f0 ee 76 0b 80 ea 5e 06 80 80 b7 0f 80 0c 61 e4 a7
       -1.052854e-39 -5.85062e-40 -1.44336e-39 -6.338793e-15
000300 aa e8 01 00 2d fa 08 80 60 70 06 00 4f 60 7d b0
       1.753e-40 -8.2443e-40 5.91326e-40 -9.2177727e-10
000310 bf 28 03 80 bb d2 08 00 82 ea 02 80 18 e0 00 00
       -2.90123e-40 8.1028e-40 -2.67797e-40 8.039e-41
000320 30 89 0c 80 64 37 00 00 b8 76 03 80 2f 5c 00 00
       -1.15124e-39 1.987e-41 -3.18095e-40 3.3069e-41
000330 08 ff 00 00 a9 86 0c 80 bf 4e 03 00 ea af 03 00
       9.1488e-41 -1.150333e-39 3.03755e-40 3.38613e-40
000340 8e 7f 05 00 4d 85 03 00 59 5e 07 80 27 48 0a 00
       5.04935e-40 3.23326e-40 -6.76694e-40 9.44238e-40
000350 cd 0e 0b 00 fa a9 da 14 7b 80 0c 00 68 61 04 00
       1.0155e-39 2.2079419e-26 1.148116e-39 4.02285e-40
000360 e1 3a 0a 00 75 0b 0c 80 83 77 49 af 10 63 ab b3
       9.39477e-40 -1.106136e-39 -1.8323303e-10 -7.9808274e-08
000370 5d 05 01 00 d3 8e 06 80 33 6d 11 00 fa f6 02 80
       9.376e-41 -6.02249e-40 1.600377e-39 -2.7227e-40
000380 8c a3 11 80 f6 0d 0c 00 94 8b 10 00 d7 51 0a 80
       -1.619873e-39 1.107034e-39 1.519439e-39 -9.47714e-40
000390 a8 f2 14 00 1a a9 05 80 02 69 07 00 e1 23 09 80
       1.923759e-39 -5.1984e-40 6.80518e-40 -8.3939e-40
0003a0 40 15 8e 98 05 bd 0b 00 e7 b0 13 80 cb bd 03 80
       -3.6727597e-24 1.077998e-39 -1.808335e-39 -3.43591e-40
0003b0 b6 c0 11 80 4b 63 0d 00 ec 06 95 8c e2 1f 06 80
       -1.630335e-39 1.229481e-39 -2.296125e-31 -5.6245e-40
0003c0 f5 73 06 00 29 c7 13 80 96 91 09 00 a4 15 07 80
       5.9261e-40 -1.81632e-39 8.78746e-40 -6.50612e-40
0003d0 1e 11 16 00 65 8d 07 00 03 57 0a 00 4d c1 09 00
       2.026521e-39 6.93571e-40 9.49569e-40 8.95863e-40
0003e0 14 11 04 80 50 ed 00 80 64 6a 00 80 ae b2 01 80
       -3.73468e-40 -8.5132e-41 -3.8166e-41 -1.55934e-40
0003f0 e8 a2 ab 9b 80 36 08 00 84 a7 09 80 a7 34 00 80
       -2.8394853e-22 7.54235e-40 -8.86613e-40 -1.8888e-41

encoder.2.bias f4 [64]
000000 9e bd 21 9b 5e b6 05 00 94 39 88 bd 72 7b 4c 3e
       -1.3378876e-22 5.24599e-40 -0.06651607 0.19968966
000010 ce 84 4a bc 20 17 00 80 0e a8 08 37 f5 9f ab 26
       -0.012360765 -8.296e-42 8.14536e-06 1.1908865e-15
000020 65 de 09 bd 5d 44 39 3e 69 1b 96 3e be 1b 79 3e
       -0.033659358 0.18092485 0.29317787 0.24326989
000030 e4 41 20 3e 6d 23 14 bb d1 15 96 b5 0c 0d f8 bc
       0.15650135 -0.0022604123 -1.118222e-06 -0.030279659
000040 d3 92 e6 90 a1 1c ea bc 96 7e 0b bd 33 77 f1 3d
       -9.094522e-29 -0.028578104 -0.03405627 0.117903136
000050 41 60 bb 3d b3 65 c2 af 5f 94 14 b8 52 4c 37 90
       0.09149218 -3.5360656e-10 -3.542413e-05 -3.614918e-29
000060 d1 a3 10 ad b2 e3 ed bd 67 bc 3f bc d8 5e 5e bc
       -8.221827e-12 -0.11615695 -0.011702633 -0.013572417
000070 fd ce 3e 3e 68 54 04 bc a3 43 59 3e 4f e0 3a 3d
       0.18633647 -0.008076765 0.21217208 0.045624074
000080 55 8f 00 bd 4e 78 ab bd 16 01 62 bc 52 48 99 af
       -0.031386692 -0.08372556 -0.013794204 -2.7881925e-10
000090 dd 59 c3 3d 3b e5 8c ae ce 54 19 bd a8 1a 37 3e
       0.095386244 -6.4071824e-11 -0.03743439 0.17881262
0000a0 05 40 00 80 36 29 fb bd 43 bd 81 13 9a eb 1c be
       -2.2966e-41 -0.1226372 3.2750805e-27 -0.1532425
0000b0 4b 02 05 00 bf 89 f0 3d fc 58 fa 3d b8 3f 59 be
       4.6e-40 0.11745023 0.12224004 -0.21215713
0000c0 d3 6e ca 9b d1 00 04 00 c3 02 54 b5 8c cd 05 80
       -3.3489715e-22 3.67635e-40 -7.8980173e-07 -5.32914e-40
0000d0 af 2b 1d bc 8d ba b0 b9 b0 c8 29 3c 7f bc 04 3e
       -0.0095929345 -0.00033708327 0.010362789 0.1296253
0000e0 cb a8 29 aa ae 79 9b 3e 17 32 04 80 18 de 8a b7
       -1.5068777e-13 0.30366272 -3.85311e-40 -1.6554302e-05
0000f0 9c 31 bb 3d 6e 11 e4 3c 75 09 b1 3d 91 1a a0 3b
       0.091403216 0.027840342 0.08644382 0.0048859795

encoder.4.weight f4 [12, 64]
000000 b1 dd d1 b5 ac 6b b3 ae dd a9 ca 3d 4d fd 90 3e
       -1.5636234e-06 -8.159104e-11 0.0989568 0.28318253
000010 a2 69 83 3c 35 ab 81 a1 42 cc ae b6 23 b1 66 a7
       0.01604158 -8.786698e-19 -5.209383e-06 -3.2014938e-15
000020 5e 4e 64 3f fc b0 c3 bc 3e 4f d5 3e af 16 29 3f
       0.8918208 -0.023888104 0.4166202 0.6605024
000030 aa 6e 63 3b fe 95 1b 3c b1 3a c4 3a 96 92 b2 3d
       0.0034703412 0.00949621 0.0014971105 0.08719365
000040 c3 60 9c b9 2e 16 57 3c 87 65 4f 3e 7b 20 67 3c
       -0.00029826732 0.013127847 0.20253573 0.014106865
000050 b3 c6 84 3e 12 8c 59 bb 38 dc fb bb 30 0d 28 15
       0.25932845 -0.003319506 -0.007686164 3.3937733e-26
000060 bd f7 52 3a f2 f2 cd be ae be c8 3c ca 62 a0 bc
       0.000804778 -0.40224415 0.024504986 -0.019578356
000070 7f 62 e6 ba 23 7a 37 bd 8d ea 86 3c b4 a3 83 bd
       -0.0017576962 -0.044794213 0.016469264 -0.06427708
000080 cc 2b de bb 14 80 79 3e 97 c8 27 bc d9 a3 8e 3a
       -0.0067801233 0.24365264 -0.010240695 0.0010882571
000090 83 b2 d5 3e 9b 97 79 3b 2e 11 c2 bd 18 a1 3d 3f
       0.41737756 0.0038084749 -0.09475933 0.74073935
0000a0 4b 89 06 80 67 93 20 be fa b4 5b 10 ec bf ab bd
       -6.00264e-40 -0.1568123 4.3329554e-29 -0.083862156
0000b0 c7 74 02 80 51 91 86 3d 40 a7 68 3d bb 25 05 bd
       -2.25563e-40 0.06570686 0.056800127 -0.032506686
0000c0 ea d9 12 b7 8a 18 b9 aa a0 70 50 3a ab fb c1 b8
       -8.753015e-06 -3.287963e-13 0.0007951353 -9.249834e-05
0000d0 6a a0 10 bd 82 16 a8 ba b8 cf bc bd e2 d8 36 3d
       -0.035309233 -0.0012824091 -0.09219307 0.04464043
0000e0 08 1e c7 38 62 8a 3a 3f f8 ff c6 1b 44 78 95 39
       9.494653e-05 0.72867405 3.2921768e-22 0.000285091
0000f0 9e 5d 87 3c b4 98 03 bd 78 8c 21 3d 2d a5 5a 3d
       0.016524132 -0.03212805 0.039440602 0.05338018
000100 fb 5d 99 b6 60 f8 a8 31 c7 9f 45 3f ca dd 7c 3e
       -4.570696e-06 4.9176805e-09 0.77196926 0.24693981
000110 58 74 d9 bb e0 90 cc 28 b8 e2 e3 38 e0 71 21 25
       -0.0066361837 2.271138e-14 0.00010866433 1.4003106e-16
000120 8b bf 65 3e 93 dc 31 3e 70 7f 7a 3d 36 39 0e be
       0.22436349 0.17369299 0.06115669 -0.13889012
000130 e8 56 3d be 25 a2 70 3c 93 ee ee 3b 92 7b 0a bf
       -0.18490183 0.014687096 0.007291624 -0.54094803
000140 72 52 7a b6 f5 65 39 3d 3b 08 0c 3e ec 10 41 3e
       -3.7300892e-06 0.04526325 0.13675015 0.18854111
000150 53 95 e3 3d e8 cb 41 3c 46 cd 0f bc d9 83 82 34
       0.11112466 0.0118284 -0.008776968 2.431032e-07
000160 2b b6 ac bb ba ce 8f bd 9f c2 a2 3c f9 e2 3c 3c
       -0.0052707396 -0.07021852 0.019868193 0.011528724
000170 0b a1 39 bd e1 a7 3f 3c 96 d4 b8 3d 67 87 c3 3d
       -0.0453196 0.01169774 0.090249225 0.0954731
000180 69 6c 20 3e 33 6e fe 3d 93 2d 24 3e 12 86 2d 3c
       0.15666355 0.124233626 0.1603301 0.010591047
000190 9b 8c 0f be 59 cf 82 3a 37 bb 90 3d ed 7a c4 bd
       -0.1401848 0.0009980007 0.070669584 -0.09593759
0001a0 fa 2d d0 1e eb fc 4c 3e 90 45 f3 10 ad 3b f5 bd
       2.2041872e-20 0.20018356 9.595378e-29 -0.11974273
0001b0 6e ae 88 9d c7 bd 1d 3e a2 61 2e 3e 1a 93 1b 3e
       -3.6179256e-21 0.15404426 0.17029431 0.15192834
0001c0 b7 c9 0d b7 8b 82 55 9e cc cf b8 bb 36 15 5d 34
       -8.45122e-06 -1.1303122e-20 -0.0056400057 2.0589945e-07
0001d0 4c af 87 3e 8a b5 a5 3b 46 7f 29 3d aa 13 b3 3e
       0.26500928 0.0050570415 0.041381143 0.3497594
0001e0 83 2d 29 3a dd f0 af 3c b7 f3 a6 b4 18 43 01 bb
       0.000645362 0.021477157 -3.1097235e-07 -0.001972383
0001f0 a9 76 64 3e b8 83 38 3e 9c 74 28 3f 1b 36 71 3e
       0.2231089 0.18018997 0.6580293 0.23555796
000200 01 be 6b 33 32 c2 98 28 e2 17 c1 be 7e 57 35 3e
       5.488801e-08 1.6959609e-14 -0.37713534 0.17709157
000210 b0 4e 81 bb 94 7a 07 00 a2 3e d6 34 30 dc 5c a5
       -0.003946148 6.86821e-40 3.9906178e-07 -1.9156561e-16
000220 a2 c8 bc 3e 20 35 25 3e 09 47 e5 3e 24 cd 77 3f
       0.3687182 0.16133547 0.44780758 0.96797395
000230 e6 6e 0d 3e 6b 32 a8 3b 7e d1 43 39 19 fb 19 3f
       0.13811836 0.0051329634 0.00018674691 0.6014877
000240 e9 c8 bd b3 00 ba 21 3d 5b b0 06 be 39 16 93 3e
       -8.837544e-08 0.039484024 -0.13153212 0.28727892
000250 be e1 2f 3e 7d 13 a1 b9 de 90 22 3b ff 82 03 00
       0.17175958 -0.00030722833 0.0024805586 3.22499e-40
000260 f2 83 65 3b fb ab b1 be bb dd b2 bb c6 50 6b bc
       0.0035021272 -0.34701523 -0.0054585612 -0.01436252
000270 af d7 19 bd 0b 96 78 bc b5 6d 25 3c 03 6a 12 bd
       -0.037559208 -0.015172492 0.010096957 -0.035745632
000280 a3 5a e1 bd f9 2d cd be 8f 57 1d bd 40 15 3f bb
       -0.11003616 -0.40074137 -0.03841358 -0.0029156953
000290 f1 75 a3 3e 4f f7 cb 39 52 4f c2 bd bd 65 60 3f
       0.3192592 0.00038903437 -0.094877854 0.8765524
0002a0 42 00 03 00 22 1d b7 bc 5d 58 6f 90 e3 4f 30 bd
       2.75599e-40 -0.022352759 -4.7202512e-29 -0.043044936
0002b0 54 ae 04 00 77 b3 fe 3d 09 27 39 3d 59 51 17 be
       4.29879e-40 0.12436574 0.045203242 -0.14777125
0002c0 0b 18 fa b4 1d be 06 00 2a a1 9c b9 e2 7a 56 b4
       -4.6583622e-07 6.19213e-40 -0.00029874715 -1.9975008e-07
0002d0 dd aa 71 bd 82 bc 0f bb 7b e1 96 3e 70 a4 e5 bc
       -0.05900084 -0.0021932428 0.29468903 -0.028032511
0002e0 2d d4 05 36 a4 44 92 3f 1f e5 01 80 97 5d 0d 39
       1.9942047e-06 1.1427197 -1.74029e-40 0.00013481673
0002f0 eb 3c 02 bd a8 90 9a bd 7e 8c 68 3e 11 d1 c1 bd
       -0.031796377 -0.07547122 0.22709844 -0.094637044
000300 2e e7 0b 80 1d d2 01 80 99 1b 06 00 cb b8 06 80
       -1.093122e-39 -1.6721e-40 5.60913e-40 -6.17304e-40
000310 b8 38 04 00 f9 92 0d 00 0d cb 0c 80 10 e8 05 00
       3.87689e-40 1.246585e-39 -1.174867e-39 5.42426e-40
000320 cc 9f 07 80 55 92 04 80 5c 6c 00 80 b5 97 05 80
       -7.00173e-40 -4.19836e-40 -3.8872e-41 -5.136e-40
000330 a0 3a 77 94 aa fb 08 00 48 14 14 00 9f 17 0b 00
       -1.2481875e-26 8.24964e-40 1.843985e-39 1.018664e-39
000340 8b 33 06 80 02 ef 04 80 b1 1c 08 80 96 ff 02 00
       -5.69503e-40 -4.53082e-40 -7.44977e-40 2.75358e-40
000350 bc fc 06 00 09 96 08 80 b4 70 05 80 e4 d0 08 80
       6.41677e-40 -7.88506e-40 -4.99608e-40 -8.0962e-40
000360 37 26 11 00 df 62 04 80 32 fc 0d 80 5a d1 08 80
       1.574912e-39 -4.0281e-40 -1.284332e-39 -8.09785e-40
000370 ea 8b f5 9d 0c 65 0f 80 76 59 07 00 6d 62 e2 a7
       -6.4995628e-21 -1.413781e-39 6.74941e-40 -6.2834314e-15
000380 b8 d1 3c ac 7e 70 02 80 ed 9d bd a9 3e fa 07 80
       -2.6832824e-12 -2.24026e-40 -8.420682e-14 -7.32618e-40
000390 2f f8 02 80 24 3d 04 00 f6 bd 07 80 be ba 07 80
       -2.72702e-40 3.89275e-40 -7.10994e-40 -7.09839e-40
0003a0 f5 38 0b 80 f4 08 15 ad 4c af 09 00 37 7a 06 00
       -1.030623e-39 -8.471657e-12 8.89404e-40 5.94855e-40
0003b0 2c df 09 00 b2 bb 23 9b 88 37 94 98 54 16 03 00
       9.06578e-40 -1.3543692e-22 -3.8313176e-24 2.83516e-40
0003c0 d5 e5 0c 00 d4 ec 13 80 8a 6c 00 80 51 50 15 80
       1.184474e-39 -1.829832e-39 -3.8936e-41 -1.957358e-39
0003d0 67 af a4 a0 da 62 06 80 ab 2e 04 00 f3 a1 e8 9e
       -2.7898752e-19 -5.86474e-40 3.84083e-40 -2.4630936e-20
0003e0 5f 39 0a 80 db b4 04 80 54 39 10 80 2d be 08 80
       -9.38936e-40 -4.32221e-40 -1.489933e-39 -8.02906e-40
0003f0 89 90 90 b2 e1 4b 8c a5 ff 5d c1 05 30 2b 8b a0
       -1.6829533e-08 -2.4337546e-16 1.8184161e-35 -2.3576095e-19

encoder.4.bias f4 [12]
000000 af b2 4e 3e ea 6a 2a 3e b1 b1 b8 3d 43 76 03 00
       0.2018535 0.16642347 0.09018267 3.17931e-40
000010 90 72 7f b8 71 1f 07 80 ea b4 08 80 d8 53 81 be
       -6.0903432e-05 -6.54128e-40 -7.99584e-40 -0.2525928
000020 d1 55 be 3e e7 17 8f 3d 9c aa 02 00 33 19 04 00
       0.37174848 0.06986981 2.44874e-40 3.76382e-40

encoder.6.weight f4 [2, 12]
000000 34 49 80 bf 72 02 a7 bd 6e 5d ed be 35 16 23 2d
       -1.002234 -0.08154763 -0.46360344 9.270408e-12
000010 0b d6 a4 3b b0 5a 06 3a ea 2a 05 38 e1 0c 0f bf
       0.0050303987 0.0005125208 3.1749638e-05 -0.55879027
000020 b2 22 15 3f 24 ca 2e 3f 87 4c 2b aa 4a ea e2 37
       0.58256066 0.6827719 -1.5214402e-13 2.7050399e-05
000030 b0 24 fa 39 d8 24 fc 3e fd e1 89 be 09 a0 9f b2
       0.0004771105 0.4924686 -0.26930228 -1.8582812e-08
000040 f0 da 44 bc d3 dd a5 39 90 a1 85 3a 1f c8 84 be
       -0.012015089 0.00031636524 0.0010195244 -0.2593393
000050 44 7d 96 bf 71 2f 0b bf 5a 0d b1 1f f4 8c 89 b4
       -1.1756978 -0.54369265 7.4984504e-20 -2.5620795e-07

encoder.6.bias f4 [2]
000000 a1 c0 05 bd 66 0b af 3e
       -0.03265441 0.34188384

decoder.0.weight f4 [12, 2]
000000 81 59 f4 bd c4 69 46 bf bb 15 c0 3f 63 3f 45 3f
       -0.11931134 -0.77505136 1.5006632 0.77049845
000010 e4 66 20 bf 45 84 0b 3f 6d 73 17 40 4c 38 86 be
       -0.62657 0.544987 2.36642 -0.26214826
000020 8c fc ea 3d 0f 81 0b bf ea c7 69 3e 16 59 7b bf
       0.11473951 -0.544938 0.22830167 -0.9818281
000030 31 41 a2 be 77 ec 32 bf 69 5a 8e bd 64 25 61 3f
       -0.31690362 -0.69892067 -0.06950838 0.8794768
000040 4d c4 09 3f 05 f2 f3 3e 12 00 58 3f b1 c9 0f bf
       0.53815156 0.47645584 0.8437511 -0.5616713
000050 7c 0d 82 3c 9f 20 b6 3f ce 6b 4d bf e8 ae 9e 3e
       0.01587557 1.4228705 -0.8024262 0.30992818

decoder.0.bias f4 [12]
000000 5d 70 26 3f 60 8b c5 3f 02 68 cc 3f 6e 96 79 be
       0.650152 1.5433159 1.5969241 -0.2437379
000010 82 f5 d5 3f 0a 29 f0 3f bd 3b d0 bf b5 6c 64 3f
       1.6715548 1.8762524 -1.6268231 0.89228374
000020 c5 11 ae bf ea 87 c4 bf fe 15 52 bf 49 eb 0c 3f
       -1.3599173 -1.5353978 -0.8206481 0.55046517

decoder.2.weight f4 [64, 12]
000000 92 0d 2b bc 44 82 1a b6 38 ed bd bb ff aa 83 b5
       -0.010440247 -2.3023613e-06 -0.005796101 -9.810027e-07
000010 d0 a2 05 bb e4 91 bb bb d9 d1 35 bc ea 0b a5 b1
       -0.0020391233 -0.0057241786 -0.011097395 -4.8034865e-09
000020 76 41 04 80 e3 e5 88 a8 95 5d 2e ad d1 38 3b bc
       -3.90825e-40 -1.519873e-14 -9.911534e-12 -0.01142712
000030 68 23 20 3e 32 d5 75 3d c2 81 7f 3d be 9d 02 3e
       0.15638506 0.060017772 0.062379606 0.12755486
000040 31 60 6f 3e 09 be 83 3b 18 ba c0 be 14 03 6a 3e
       0.23376538 0.0040204567 -0.37641978 0.22852737
000050 9c e1 3e bf 51 41 2e bf be 37 73 be 29 11 0a 3e
       -0.74563 -0.68068415 -0.23751733 0.13483109
000060 ae bf ed 3d 61 05 cf 3e c4 24 ba 3d 3e 5a 53 3e
       0.116088256 0.4043379 0.09089044 0.20639893
000070 51 a5 e6 bd 4a f1 12 bc 80 2c 60 bd f7 e5 01 be
       -0.11262 -0.008968661 -0.05472994 -0.12685381
000080 62 b6 0c 3e 0a aa eb 3d de 85 0c be 17 5b 0b 3e
       0.13741449 0.11507042 -0.13722941 0.13608967
000090 c5 64 07 bf f9 39 0f 3f ff 55 31 bf df 54 69 3f
       -0.5288814 0.55947834 -0.69271845 0.9114513
0000a0 cb a7 d1 be 98 13 aa be dd eb cb 3e a1 6f 8b be
       -0.40948328 -0.33218074 0.39828387 -0.27233604
0000b0 01 e6 94 3e 00 d7 bb 3e 74 9f 03 bc cf f7 ba be
       0.2908173 0.3668747 -0.008033622 -0.36517188
0000c0 a5 18 4d 3e da 44 9f 3d d2 bb 10 3e 87 19 21 bf
       0.20028932 0.07776804 0.14134148 -0.62929577
0000d0 df eb 87 3e b9 ff a1 3e 5d d6 de 3d bc 25 8c 3c
       0.26547143 0.31640413 0.1088073 0.017107837
0000e0 63 14 45 3e a7 9e 04 be 51 59 24 3e ef 75 c2 be
       0.19246058 -0.12951146 0.16049697 -0.379806
0000f0 f2 3f 23 bf fb 85 aa bf 08 3f 57 3e 53 a0 10 00
       -0.6376945 -1.3322138 0.21020138 1.526881e-39
000100 82 c7 c1 bf df 6e 97 bf 97 c1 64 be fc 9b ef 3d
       -1.513901 -1.183071 -0.22339474 0.116996735
000110 59 26 0e be e5 d5 15 00 d9 6c ad 3e 6d 3e 27 3f
       -0.13881816 2.005276e-39 0.33872107 0.6532963
000120 53 ac 30 bd 42 a8 aa bf dc 69 96 3e a3 92 c5 be
       -0.04313309 -1.3332598 0.2937764 -0.38588437
000130 bd b9 d1 3e 3e b9 34 3e 00 1a 38 be ac 44 cd 3d
       0.4096202 0.1764879 -0.17978668 0.10022864
000140 14 09 0e 00 90 d9 09 bf 85 f4 0a bf 01 a4 2c be
       1.288954e-39 -0.538476 -0.5427936 -0.16859438
000150 ae ef 87 be f3 e9 40 3e 1f 2d 8b 3e f2 e2 6b bf
       -0.2655005 0.18839245 0.27182862 -0.92143166
000160 b0 ab d5 3e 29 f6 c7 3e aa db 61 bf d0 cf ba be
       0.4173255 0.39054993 -0.88225806 -0.36486673
000170 24 75 15 3f f1 a4 8f bf c9 89 3e 3e fb 34 01 3e
       0.5838187 -1.1222211 0.18607248 0.12617867
000180 52 ba b9 bd c2 af a5 be ab 85 8c be fb 57 ee 3e
       -0.09068741 -0.32360655 -0.2744573 0.465515
000190 90 7f 17 3e 99 f3 2c 3e 11 53 26 be d7 60 cc be
       0.14794755 0.168898 -0.16242625 -0.39917633
0001a0 b4 f1 d7 3d 77 74 59 3d 90 bf 12 bd ee 2a 90 3e
       0.10544148 0.053089585 -0.03582722 0.28157753
0001b0 90 bc b6 3d 5c 3f 04 bf a7 9e 0e be f4 03 8d 3c
       0.08922684 -0.5165918 -0.13927709 0.017213799
0001c0 9a 1b 48 3e 27 ae 7c 39 76 66 61 be 82 db be 3e
       0.19541779 0.0002409747 -0.22011742 0.37276846
0001d0 da d2 85 be 08 f9 dd bd f9 38 8f 3e 12 65 3f 3e
       -0.2613743 -0.108385146 0.27973154 0.18690899
0001e0 dd e3 1e bf 08 bc 82 3f e5 2d f1 bd 33 47 6a 3e
       -0.6206644 1.0213633 -0.11776332 0.22878723
0001f0 97 a1 cf be 9f 22 82 bf 6d b1 24 be 1c e8 7b 3e
       -0.4055297 -1.0166816 -0.16083308 0.24600261
000200 15 18 55 be 4c a1 fd be b1 08 ba 3e 01 1e 2f 3d
       -0.20809968 -0.49537122 0.36334756 0.042753223
000210 5a 07 89 3d c5 d2 86 be bb ae d4 3b 7c ef f6 be
       0.06690855 -0.2633268 0.006490556 -0.48229587
000220 51 6e 6e 3e 0e c8 2e 3e 14 b5 1d bf 10 e6 a2 3e
       0.2328427 0.17068502 -0.6160443 0.3181615
000230 21 29 35 3e 9d 48 0d 3e 59 93 a4 3e c1 c6 dd bd
       0.1769147 0.13797231 0.32143667 -0.10828925
000240 89 2c 4a 3d b4 14 7f 3e 4e 61 9c 3d b3 bc b2 be
       0.04935888 0.24910241 0.07635747 -0.3490959
000250 85 c8 c5 bd 6d 51 33 3e 4b 64 2e be 2f 64 1a be
       -0.09657387 0.1751153 -0.17030446 -0.1507728
000260 00 57 47 bd 89 fc 95 3e 57 97 00 bd 60 d4 2b 3c
       -0.048666954 0.29294232 -0.03139433 0.010487646
000270 56 bb d4 be c0 6e 16 3e dc d1 41 3d 68 cd 69 3e
       -0.41549176 0.14690685 0.047319278 0.22832263
000280 60 86 8c bd 0d c7 30 bf 3d 34 be be ec df 85 3e
       -0.068615675 -0.6905373 -0.3714923 0.261474
000290 9e f4 de 3e a7 61 82 3d 4c e7 0d 3d c9 3b b1 3e
       0.43546003 0.06366282 0.03464441 0.34615925
0002a0 cd 9d 06 bd 7d 24 a0 bc 47 08 f6 bc dd d0 dc bc
       -0.032865334 -0.019548649 -0.030033244 -0.026955063
0002b0 4e 82 ff bc 93 bb 0b bd cb d6 04 bd e0 87 0d bd
       -0.031190064 -0.03411443 -0.032431405 -0.03455341
0002c0 79 e8 43 ba d9 a6 4a bc 74 69 27 bd 4d b6 08 bd
       -0.0007473301 -0.012368881 -0.040872052 -0.03337698
0002d0 fd 94 54 3e 16 c5 44 3e 53 31 08 bf a1 0e 15 3f
       0.2075996 0.19215807 -0.5320026 0.58225447
0002e0 76 12 7c 3e 03 9f bf 3e d6 12 9d 3e c9 6e ce be
       0.24616417 0.37426004 0.30678433 -0.40318897
0002f0 b2 d1 5c bc 25 79 46 bd a3 0a 07 be 35 7d 2b be
       -0.01347773 -0.048455376 -0.13187651 -0.16746981
000300 f9 6d a1 3d 62 e0 19 be be dc b8 3c 78 e9 84 bf
       0.07882304 -0.15027002 0.022566196 -1.0383749
000310 ea a6 77 3d 51 df c5 bd b5 10 64 bd 5f 50 e6 3e
       0.060461916 -0.09661735 -0.055679996 0.44983193
000320 6d 5c 70 3d 2d 56 ff bd 05 a6 9e 3e 9f 33 c7 37
       0.058681894 -0.124676086 0.30986038 2.3746687e-05
000330 47 94 51 3e f7 26 2a 3f 0f a9 7a 3d 9a b5 f7 be
       0.2046672 0.66465706 0.061196383 -0.48380738
000340 92 88 3c bd 36 a0 71 3a 18 65 05 bf cf 17 b2 be
       -0.04602868 0.00092172937 -0.5210738 -0.3478379
000350 f2 dc e8 be a8 ba 83 be 4b 9b e3 bd f5 84 57 3e
       -0.45481068 -0.25728345 -0.11113604 0.21046813
000360 58 71 a9 3e 2f e5 cf 3e 2d f7 6f bb cf 62 5d bf
       0.33094287 0.4060454 -0.0036615834 -0.86478895
000370 24 79 18 be 6b d8 5d bc d3 29 b1 be a8 19 02 3d
       -0.14889961 -0.013540368 -0.34602222 0.03176275
000380 38 b1 e1 bd 4a 1f 35 3d b3 da 05 bd a5 df 81 3d
       -0.1102013 0.044219293 -0.03267927 0.06341485
000390 44 7a 9d 3d 4b d0 97 bf ba 6b 50 be 78 81 02 bf
       0.07689336 -1.1860441 -0.20353594 -0.50978804
0003a0 86 10 8a 3e a4 c8 05 3e 0e 75 ed bc fe b5 95 bd
       0.2696573 0.1306482 -0.02898648 -0.07310103
0003b0 22 f0 08 00 7f de c0 be 76 93 04 3d ee 4b 97 3d
       8.20827e-40 -0.3766975 0.032367192 0.07387529
0003c0 7b 74 96 bf d0 e8 a8 3d 23 d4 46 3e b3 52 2a 3f
       -1.1754297 0.082475305 0.19416861 0.6653244
0003d0 cf 57 f8 bd ba e3 38 be 62 1f ad be e1 7e 01 3f
       -0.12126123 -0.18055621 -0.33813006 0.50584227
0003e0 c8 92 18 bf 44 22 c6 3c f7 c9 f4 3e ae 13 92 be
       -0.5959897 0.024186261 0.47810337 -0.2853064
0003f0 bd 7b 08 bb 5e e3 d2 b6 7d d8 c2 ba 66 ae 0c 35
       -0.0020825707 -6.2849567e-06 -0.0014865544 5.240785e-07

decoder.2.bias f4 [64]
000000 28 54 19 b5 2e b4 b2 3f b1 ff 2a be a3 ff a7 be
       -5.7119405e-07 1.3961236 -0.16699101 -0.32812223
000010 04 ee 3d 3e 4e 98 f3 bf f2 37 35 3f 49 8a 5b 3f
       0.18547827 -1.9030855 0.7078849 0.8575788
000020 3c 40 0d bd 8f 26 41 3f d0 1d 32 be c9 f9 23 3e
       -0.034485087 0.7544946 -0.17394185 0.16013254
000030 59 d3 8e be 8c 0c c7 be e0 1b a5 bc 30 cb 3e be
       -0.2789562 -0.3887676 -0.020154893 -0.18632197
000040 eb 8a 15 3f f5 83 6d 3e be ee d1 3d cf 95 df 3e
       0.58415097 0.23194869 0.102506146 0.43668982
000050 c0 5f bd 3e 84 40 be b0 1d 68 e5 3e cf e6 77 3f
       0.36987114 -1.3842656e-09 0.44805995 0.9683656
000060 33 09 41 3e af d4 26 3f b6 4f d1 3e 32 76 02 bf
       0.18851165 0.6516828 0.40881127 -0.509616
000070 95 da 24 3e b0 e7 8d 3f c1 63 8d bd df 01 97 3e
       0.16099007 1.108633 -0.06903792 0.29493615
000080 37 ea 81 3e 94 95 0b 3f 90 da 72 3f 66 0a 49 3e
       0.25374004 0.54525113 0.9486475 0.19632873
000090 3c b2 a5 00 e8 d3 cb 3d a5 78 f5 3e 85 34 79 3f
       1.5216795e-38 0.09952527 0.47943607 0.97345763
0000a0 8c 8c 8e 3e f9 0c 1b 3f 13 96 1b bd 86 26 57 3f
       0.27841604 0.6056667 -0.03798492 0.8404316
0000b0 ed dd 4d 80 eb 64 83 bb 48 ee a8 3f e3 51 70 b9
       -7.150945e-39 -0.004009833 1.3197718 -0.00022918689
0000c0 07 1d 19 3f 3f 15 24 be 3a 40 8b 3e 37 b5 8f 3e
       0.5980992 -0.1602373 0.27197438 0.28067943
0000d0 e8 fd ec 3e 4b a8 2d bf 5a 89 40 3f 4e a9 9e 3d
       0.46287465 -0.6783492 0.7520958 0.07747136
0000e0 4e 58 0f 8b 45 46 2a 3d 19 06 ba be 5d c7 17 3f
       -2.760723e-32 0.04157092 -0.36332777 0.5928858
0000f0 24 47 4b 3e 5a 6e 01 3f e7 a7 07 3e 5a 14 94 bd
       0.19851357 0.5055901 0.13247643 -0.07230444

decoder.4.weight f4 [128, 64]
000000 f7 89 b6 b6 5a 3e 09 3e 56 27 06 3d be 83 bc be
       -5.440084e-06 0.13402691 0.032752357 -0.3681926
000010 2a 10 6b 3e 51 e7 8a 3e d4 6a 9a bc 90 df 9f 3d
       0.22955385 0.27129605 -0.018849768 0.07806313
000020 a3 5d e7 3d 22 14 b8 3c 09 d9 86 3c ab ce 2d be
       0.11297157 0.022470538 0.016460912 -0.16973369
000030 28 50 eb 3a 26 4b 81 3e 6c 5e 31 bc 33 4a ae be
       0.0017952966 0.25252646 -0.010825735 -0.34040985
000040 9e 7c 29 be 42 45 93 3d 29 e1 70 bd 00 39 0e 3e
       -0.16551444 0.07190944 -0.05880848 0.13888931
000050 5d 52 be be f4 32 1e 38 29 da 06 3f fa 82 38 3e
       -0.37172213 3.771759e-05 0.52676636 0.18018714
000060 2e d7 f2 bc 3f d5 46 be db 2d d9 bb 1b ad f2 3c
       -0.029643621 -0.19417284 -0.006627781 0.029623559
000070 a7 cf 84 3d 84 12 73 3e 4e 3c 22 bd 1f 78 27 be
       0.06484919 0.23737532 -0.039608292 -0.16354416
000080 43 86 0a be 35 f6 6a 3c 72 0a 37 3e 08 07 8f bd
       -0.1352778 0.014340927 0.17875078 -0.06983763
000090 68 b5 9e 81 07 38 5b bc bf b3 b3 3e d7 2b 24 be
       -5.830034e-38 -0.013380057 0.35098073 -0.16032349
0000a0 12 8f 8f 3d f3 76 e2 be 24 da 8d 3d d2 4d 13 3e
       0.0700971 -0.44231376 0.06926373 0.14385155
0000b0 44 69 2a 00 8f 79 8b 3b 42 5c 5a be 8a 07 3d 3b
       3.894853e-39 0.0042564343 -0.21324256 0.0028843605
0000c0 21 9e 17 3e 91 05 16 3d 3b ff 6e 3e 82 78 e4 3d
       0.14806415 0.036626402 0.2333955 0.111557975
0000d0 77 5c 68 3d da 85 2c 3d fd ff 2f 3e 19 9a 2d be
       0.056728806 0.04211984 0.17187496 -0.16953315
0000e0 77 33 a4 27 54 e9 c2 bc 27 23 6b bf ab 75 4a 3d
       4.5574942e-15 -0.0237929 -0.91850513 0.049428623
0000f0 bb fe a5 bd 15 a4 ef 3d 02 e0 63 3e 8d 9d 54 3d
       -0.081052266 0.11701218 0.22253421 0.051908065
000100 af 87 0c 00 e4 6d e6 9d 4d 7c d9 a0 5a df 06 80
       1.1507e-39 -6.0994117e-21 -3.6843485e-19 -6.31136e-40
000110 85 8a 1a a0 58 08 ad 8e b7 cd 06 80 e7 1e 05 00
       -1.309014e-19 -4.2655827e-30 -6.2481e-40 4.70263e-40
000120 03 e1 02 00 4a b5 98 03 ed 7d 03 00 ff df 03 00
       2.6439e-40 8.975379e-37 3.2068e-40 3.55861e-40
000130 2b 7c 07 80 46 b8 05 80 12 02 14 00 f8 c1 a3 ab
       -6.87392e-40 -5.25282e-40 1.837453e-39 -1.1635684e-12
000140 4f 19 03 80 74 cf 06 00 3f 70 02 80 13 23 12 89
       -2.84586e-40 6.25433e-40 -2.23937e-40 -1.7590603e-33
000150 18 74 00 80 7b cf 0a 80 24 e6 ce a7 60 f3 74 91
       -4.1647e-41 -9.92785e-40 -5.7426005e-15 -1.9323202e-28
000160 3e ba 00 80 64 6a 20 9c de 52 06 80 9d 6a 88 ab
       -6.6811e-41 -5.3077066e-22 -5.8074e-40 -9.692972e-13
000170 4d 86 01 00 c6 80 97 80 8a 2f 02 80 5e 21 a3 ac
       1.40014e-40 -1.3913355e-38 -2.00725e-40 -4.636443e-12
000180 eb d7 13 a0 0b bb 02 80 bd 77 a0 94 25 6f d7 8f
       -1.2522826e-19 -2.5077e-40 -1.62031e-26 -2.1243448e-29
000190 9c 3f 0b 80 68 a3 03 80 06 01 1c a2 90 9b 2d 92
       -1.033009e-39 -3.34126e-40 -2.1142484e-18 -5.478092e-28
0001a0 9b 2c 00 00 d9 34 a0 ac 9f 9f d4 97 eb 81 07 80
       1.6001e-41 -4.5533408e-12 -1.3740473e-24 -6.89454e-40
0001b0 0c 78 0d 00 71 c4 0e 00 e1 81 09 89 44 f6 05 80
       1.236926e-39 1.356167e-39 -1.6551844e-33 -5.47521e-40
0001c0 5f a8 05 80 ac b4 e6 b3 4d 0e 00 80 e0 86 dd 9a
       -5.19578e-40 -1.07430736e-07 -5.13e-42 -9.162136e-23
0001d0 ad fe 05 80 d3 1a 1b af f3 60 7d 03 ea c7 78 a1
       -5.50538e-40 -1.4106698e-10 7.446131e-37 -8.429025e-19
0001e0 95 c1 0e 80 b0 3f 08 80 96 f0 21 ae a5 a5 02 00
       -1.355141e-39 -7.57531e-40 -3.6820845e-11 2.43093e-40
0001f0 65 10 04 80 83 9a 06 00 09 e6 eb 9b ac c8 05 00
       -3.73223e-40 6.06441e-40 -3.9026146e-22 5.31165e-40
000200 67 55 2a 38 b6 25 d1 bd af 04 31 bf 67 c1 49 3e
       4.0610696e-05 -0.10212271 -0.6914777 0.19702683
000210 06 03 31 3e 67 f2 0e be b3 b0 04 3f 47 ed 73 3e
       0.1728631 -0.13959657 0.5183212 0.23820983
000220 d3 91 f8 bd 2c 62 9c 3d fa 78 76 be 31 0d db 3d
       -0.12137189 0.07635912 -0.24069586 0.106958754
000230 72 e3 ba be 0a 10 a4 3e e0 48 4b 3c 3e 73 5a bc
       -0.36501652 0.32043487 0.0124075115 -0.01333314
000240 87 cb bd bd fb c1 fa be f6 68 af be b3 34 7a bd
       -0.092673354 -0.4897612 -0.34259766 -0.061085414
000250 ca 61 c1 be 61 96 2c 34 e9 23 e5 bc 9b c1 0c 3f
       -0.3776992 1.6073456e-07 -0.027971225 0.5498292
000260 a2 bd 00 3d 9c 85 f6 bd f9 8e d4 bd 0e 98 d8 be
       0.031430848 -0.12037203 -0.10378832 -0.4230351
000270 68 7d cb be 8d b8 a1 3d 6b f9 ce be 84 bb f4 bd
       -0.39744115 0.078965284 -0.40424666 -0.11949828
000280 eb da 97 3e 26 9b f3 bd c6 b1 af 3e c3 07 c4 3d
       0.2965921 -0.118948266 0.34315318 0.09571793
000290 18 8f 04 80 fb ca 2b 3d f7 1e 34 be f4 1d 70 3e
       -4.18674e-40 0.041941624 -0.17589937 0.23448926
0002a0 2d 13 e1 bc fb c5 82 3c 90 d1 10 3f f6 da 0f 3f
       -0.027474964 0.015963545 0.56569767 0.5619348
0002b0 f9 ef 06 80 55 39 40 bb 22 07 71 3e 78 43 55 ba
       -6.37099e-40 -0.0029331048 0.23537877 -0.0008135359
0002c0 d3 a8 b6 bc 04 ad 6a bf b1 f9 97 be cf 3c 0c 3e
       -0.022297299 -0.9167025 -0.29682687 0.13695072
0002d0 17 a2 c8 bd 45 3b f2 be 6f 54 20 3e b5 dc 07 3e
       -0.09796541 -0.47310844 0.15657209 0.13267787
0002e0 d7 c6 2a 89 16 ca b2 bb d2 5b 81 3d c8 39 5a bc
       -2.05565e-33 -0.0054562194 0.063163415 -0.01331944
0002f0 bd ae 25 bd 8c 48 d8 bd fa c5 63 be b1 7e 26 be
       -0.040449847 -0.10560712 -0.22243491 -0.16259266
000300 3a 58 a5 37 6d b6 a8 3e cb 44 df bd fa 81 03 bf
       1.9710616e-05 0.3295168 -0.10901793 -0.51370203
000310 23 42 79 3d 42 b4 25 bf 86 c4 a2 be 2a dd 12 bd
       0.06085409 -0.64728177 -0.3179056 -0.03585545
000320 04 c6 41 3e 22 9b 4f 3e d8 d5 e7 bd 0d d3 33 3e
       0.18923193 0.20274022 -0.11320084 0.17560978
000330 8d 14 f6 bd 31 98 81 be 96 29 8f bc f4 3f a5 bd
       -0.120156385 -0.25311425 -0.017475884 -0.08068839
000340 33 fa 97 3e 71 3a 19 be 47 56 d7 3d 2f 08 9d 3a
       0.29683074 -0.149637 0.10514503 0.0011980588
000350 a3 3c cc bd 4d d3 41 b7 a2 31 06 bd 0e 09 5e be
       -0.09972503 -1.1552894e-05 -0.032762177 -0.21683142
000360 f3 a6 20 3e bf b9 55 3e f8 78 3a 3d 76 11 c1 bd
       0.15688686 0.20871638 0.04552552 -0.094271585
000370 4c e7 93 3d fb ce 13 be b6 a6 35 3d ce 86 30 3e
       0.07221851 -0.14434426 0.04434844 0.17238924
000380 1b ef 09 be 1a 69 ec 3d a3 aa 86 be c3 df 36 bd
       -0.13470118 0.11543484 -0.2630206 -0.04464699
000390 2f d3 11 a0 eb a7 72 bd 22 57 ee 3d ab 2f f4 be
       -1.2351853e-19 -0.05924217 0.11637713 -0.47692618
0003a0 73 63 da 3d 79 2b 23 be 33 79 cd 3e e9 7c 73 3d
       0.106635 -0.15934552 0.4013153 0.059445295
0003b0 52 6b 22 10 fc 8a 89 bc cc fb d8 be 12 1f 0f 3b
       3.2031543e-29 -0.016789906 -0.42379606 0.0021838588
0003c0 03 3c dc 3c 69 8e 1e bd b8 ff a3 bc 05 42 7b be
       0.026884085 -0.03871003 -0.020019397 -0.24536903
0003d0 24 4b cb 3d 98 a8 2f 3d 67 e0 a1 3e e6 b5 5e 3f
       0.09926441 0.042885393 0.31616518 0.86996305
0003e0 ce f3 86 a7 05 63 e0 3d 92 df c3 be 14 a7 34 3e
       -3.7456805e-15 0.109563865 -0.38256508 0.1764186
0003f0 45 ca 7d 3d ef e7 2e 3e 30 59 3c 3e 01 e5 15 3e
       0.061960477 0.17080663 0.18393397 0.1463814

decoder.4.bias f4 [128]
000000 22 81 88 bc 71 50 01 80 e2 e3 de bc 4a 80 7a 3e
       -0.016663138 -1.20692e-40 -0.027208272 0.24463001
000010 bf e9 03 80 44 25 5d b7 fc 3c 04 80 f1 50 05 00
       -3.59359e-40 -1.3181303e-05 -3.89219e-40 4.88214e-40
000020 f5 47 a9 95 a3 2a 02 80 60 03 7b 3e 63 24 e7 3d
       -6.8372085e-26 -1.98966e-40 0.24513006 0.11286237
000030 bb cb 2c bb cb 83 07 80 25 ec 84 bd e6 cc 22 3e
       -0.002636655 -6.90127e-40 -0.064903535 0.15898475
000040 0c 58 23 1b d9 a3 06 80 0d 4d 05 3e 24 83 41 3d
       1.3511493e-22 -6.0979e-40 0.13017674 0.047244206
000050 b1 34 02 80 b4 cb 99 bd 6f 8f c9 3e 46 d5 35 bd
       -2.02573e-40 -0.075095564 0.39367244 -0.044392847
000060 69 26 b2 3e fd d0 b3 3e dd 63 4e 3d ab dc b3 3d
       0.3479493 0.35120383 0.050388206 0.087823234
000070 14 a3 03 80 6d 27 4f 3e a7 c7 1b 3e 88 b9 9d a4
       -3.34008e-40 0.20229883 0.1521288 -6.84022e-17
000080 ad 6f 40 bc 03 bf 07 3e cc 4b c1 3d 03 4c ce a7
       -0.011745376 0.13256459 0.09438285 -5.7258898e-15
000090 7e 60 be 8c f6 cd 95 3d e2 c4 a5 3c 59 eb 26 3d
       -2.933221e-31 0.073146746 0.020235483 0.04075179
0000a0 31 71 3d bd 82 ae 20 8b 90 52 07 00 f4 2c 0b be
       -0.046250526 -3.0946164e-32 6.72466e-40 -0.13591367
0000b0 97 ef 51 3d c5 0f ef 3e d7 3c 1e bd ac 81 22 3e
       0.05125388 0.4669172 -0.03863224 0.15869778
0000c0 86 d3 54 06 97 4b bc bb e4 76 af b8 b4 de 06 00
       4.002817e-35 -0.0057463157 -8.3667954e-05 6.30904e-40
0000d0 23 e6 3a 3e c0 57 f4 bd 20 54 2f a5 a6 52 f0 3d
       0.18251853 -0.119307995 -1.5207333e-16 0.11734514
0000e0 ae 64 58 ba a1 f0 65 3d 0f 00 06 80 c5 5c 00 80
       -0.00082547485 0.056137685 -5.51034e-40 -3.328e-41
0000f0 c0 7b ae 3d b5 ea cd 3d 11 53 4c 3e a1 f6 87 3e
       0.08519697 0.100545324 0.19953562 0.2655535
000100 90 1d 94 3e 57 ca 9e 3d 97 4f ee 3d f4 83 6e be
       0.28928804 0.07753437 0.11636274 -0.23292524
000110 73 64 74 bd 3e a8 40 be 1f 5c 44 bd c1 d1 bf bd
       -0.05966611 -0.1881418 -0.047939416 -0.09366179
000120 c8 0c 96 bc eb bd ad 82 7d 8d 93 bc a8 fb 43 3e
       -0.018316641 -2.5529073e-37 -0.018011803 0.19138968
000130 d9 a7 95 3e dc e8 86 15 ae fb 0a b9 02 3f 07 80
       0.2922962 5.4489556e-26 -0.00013254464 -6.65451e-40
000140 2f 9b 72 3e 61 14 e8 3d a9 bd a5 3d 66 ed ec a1
       0.2369201 0.11332012 0.080928154 -1.6054821e-18
000150 a2 bf 18 9f cf be c2 3c fa 96 57 ba f7 06 b4 3e
       -3.2345767e-20 0.023772625 -0.00082240964 0.35161564
000160 56 fe 5b ab 8b 8e 57 bc 80 a5 05 3e 66 1a d6 b2
       -7.815739e-13 -0.0131565435 0.13051414 -2.4924883e-08
000170 f5 a3 8b 3e 31 b0 77 3d 9d b3 1f bc 23 37 7f bb
       0.27273527 0.060470764 -0.009747413 -0.0038942776
000180 c9 70 2d 3c ea eb db bd df cc 13 b9 82 3c 9d a1
       0.010585972 -0.107383564 -0.00014095333 -1.065475e-18
000190 37 f1 02 00 a9 fe 04 00 92 ab a9 3e e6 53 5c bb
       2.70203e-40 4.58697e-40 0.3313871 -0.0033619343
0001a0 d9 6d 84 3c fe 3c ad b7 29 13 1a 3e 63 9a 01 80
       0.01616566 -2.0651609e-05 0.15046372 -1.47219e-40
0001b0 eb 46 4f 3e 04 70 1e 3e 5b c6 19 3e 7e 04 d0 3d
       0.20241897 0.15472418 0.15017073 0.10157107
0001c0 0e 99 62 3e be 18 ec bc de 15 eb 3d d8 d0 17 bd
       0.22128698 -0.028820392 0.1147878 -0.037064403
0001d0 d9 43 a6 92 b7 8b 56 9f e3 f8 32 3c 9c 84 a7 3e
       -1.0492799e-27 -4.5431832e-20 0.010923597 0.3271836
0001e0 a0 03 58 ba 2b af 55 3d 56 90 92 3c 2e fb 11 96
       -0.0008240286 0.052169006 0.01789109 -1.1792265e-25
0001f0 d1 b6 00 be 5f 54 d8 3d a3 79 5c 3e 8c c0 c3 bb
       -0.12569739 0.105629675 0.21530776 -0.005973881
